…
,"photoUrl":"","userId":"04579634018812241386"}},"outputId":"3a54dfd1-fd95-4884-d7c9-419912964904"},"source":["model.summary()"],"execution_count":9,"outputs":[{"output_type":"stream","text":["Model: \"functional_1\"\n","_________________________________________________________________\n","Layer (type)                 Output Shape              Param #   \n","=================================================================\n","input_2 (InputLayer)         [(None, 13)]              0         \n","_________________________________________________________________\n","dense_1 (Dense)              (None, 8)                 112       \n","_________________________________________________________________\n","batch_normalization (BatchNo (None, 8)                 32        \n","_________________________________________________________________\n","activation (Activation)      (None, 8)                 0         \n","_________________________________________________________________\n","dense_2 (Dense)              (None, 8)                 72        \n","_________________________________________________________________\n","batch_normalization_1 (Batch (None, 8)                 32        \n","_________________________________________________________________\n","activation_1 (Activation)    (None, 8)                 0         \n","_________________________________________________________________\n","dense_3 (Dense)              (None, 8)                 72        \n","_________________________________________________________________\n","batch_normalization_2 (Batch (None, 8)                 32        \n","_________________________________________________________________\n","activation_2 (Activation)    (None, 8)                 0         \n","_________________________________________________________________\n","dense_4 (Dense)              (None, 1)                 9         \n","=================================================================\n","Total params: 361\n","Trainable params: 313\n","Non-trainable params: 48\n","_________________________________________________________________\n"],"name":"stdout"}]},{"cell_type":"code","metadata":{"id":"R0sj_txm_3qV","colab_type":"code","colab":{"base_uri":"https://localhost:8080/","height":395},"executionInfo":{"
…
